cvtub_shapes_PH/bilayers coeffs [1 1 1 0 0 0] m -0.4_phi.npy (npy, 169112 bytes, 1 tensors)

array f8 [7041, 3]
0	0xc01df4e7360aa0b4	-7.48916325034968
1	0x40375dc0239b0b95	23.36621305976185
2	0x0000000000000000	0.0
3	0xc01da293fc34903e	-7.408767643650263
4	0xc00edcde4b2cb834	-3.857845866491539
5	0x0000000000000000	0.0
6	0xc01c6eaced38e95e	-7.108081537817581
7	0xc00f520692e31a7c	-3.9150516009861445
8	0x0000000000000000	0.0
9	0xc017896e35687052	-5.884209475039897
10	0xc00da23260706457	-3.7041976484584143
11	0x0000000000000000	0.0
12	0xc0179e92b5048a0c	-5.904856518175176
13	0xc00f45327b34f6e4	-3.9087876916445214
14	0x0000000000000000	0.0
15	0xc016c872656c5c0c	-5.695748886812918
16	0xc00f45970cc69bb1	-3.9089795110807803
17	0x0000000000000000	0.0
18	0xc016a4859bb4c5af	-5.66066592493864
19	0xc00f1199e3dce055	-3.883594303300962
20	0x0000000000000000	0.0
21	0xc013fb77b9f31cfe	-4.995573907340484
22	0xc00ead9f7a18c720	-3.83477683437458
23	0x0000000000000000	0.0
24	0xc014073b6d0bfbe8	-5.007062629562803
25	0xc00f652e59906ec4	-3.9244048115923267
26	0x0000000000000000	0.0
27	0xc013c41ab1219e5b	-4.941508071591296
28	0xc00fa6a1a0a257a6	-3.9563629674475633
29	0x0000000000000000	0.0
30	0xc0138a6d025754d7	-4.885181461887632
31	0xc00f777ae66514f5	-3.93333988185861
32	0x0000000000000000	0.0
33	0xc0142bb2f7a4222c	-5.042674893753922
34	0xc01062154003703e	-4.095784187517038
35	0x0000000000000000	0.0
36	0xbff8e340803085ff	-1.555481434574517
37	0xbfe5550840d15388	-0.6666299119921044
38	0x0000000000000000	0.0
39	0xc012c176c011536b	-4.68892955880879
40	0xc00f3b93a9ec3fd5	-3.904090240022905
41	0x0000000000000000	0.0
42	0xc0134ad7b4217762	-4.823088469069122
43	0xc01034af6aa039db	-4.0514504108709515
44	0x0000000000000000	0.0
45	0xc01354633d46b4e2	-4.832409818115794
46	0xc010467305b9ed0a	-4.068798150513667
47	0x0000000000000000	0.0
48	0xc012947fdf2589bf	-4.645019041696684
49	0xc00f1dcae7b505ab	-3.8895471670263837
50	0x0000000000000000	0.0
51	0xc010f6a951619d59	-4.240880271513867
52	0xc00bf0755bdaa133	-3.4924113441558347
53	0x0000000000000000	0.0
54	0xc0133549292c0af2	-4.802036898911625
55	0xc010376f5889cc86	-4.054135688219622
56	0x0000000000000000	0.0
57	0xc01207c9b838a687	-4.507605436761543
58	0xc00f4411f7a6b6d1	-3.908237395072185
59	0x0000000000000000	0.0
60	0xc0121fa99867e90a	-4.530920392362768
61	0xc00f78ecb8054a7a	-3.9340452553381597
62	0x0000000000000000	0.0
63	0xc01133bde655e904	-4.3005290975509105
64	0xc00de7f788202058	-3.7382650980762655
65	0x0000000000000000	0.0
66	0xc0125a0184dd1493	-4.587896419519114
67	0xc0104f10b3e78016	-4.077212153439197
68	0x0000000000000000	0.0
69	0xc01102f8c558abc8	-4.252902110611963
70	0xc00df6c0f2b3fd08	-3.7454852067163564
71	0x0000000000000000	0.0
72	0xc01065e80bb23237	-4.099517996550779
73	0xc00d16fcf62b42b5	-3.636224673457344
74	0x0000000000000000	0.0
75	0xc01222ff368caf18	-4.534176685654323
76	0xc01051fc3a48e54a	-4.080063734721373
77	0x0000000000000000	0.0
78	0xc011f746218346ac	-4.491478465688186
79	0xc010483354e9959f	-4.070508314854492
80	0x0000000000000000	0.0
81	0xc010a879bda3f0c9	-4.164526904231203
82	0xc00df4298a890dee	-3.744219858462876
83	0x0000000000000000	0.0
84	0xc012bcb3b584035f	-4.684279285604901
85	0xc011162efbe963f4	-4.27166360485079
86	0x0000000000000000	0.0
87	0xc0124d17576f5b0c	-4.575284353419885
88	0xc010a75aeb5fb720	-4.163432767598152
89	0x0000000000000000	0.0
90	0xc0123ca09eb8f4c2	-4.55920646671183
91	0xc01099bb7ae7e1c7	-4.150129242327643
92	0x0000000000000000	0.0
93	0xc010a7b2f6b5f184	-4.163768629889436
94	0xc00e0a5df71a9d4f	-3.7550620369908425
95	0x0000000000000000	0.0
96	0xc011cb279d125d68	-4.448393301244643
97	0xc010303ba0de9f18	-4.047102464282737
98	0x0000000000000000	0.0
99	0xc0125bef67e6affd	-4.5897804483938645
100	0xc010c656dec9f508	-4.193690758778082
101	0x0000000000000000	0.0
102	0xc011efdd90a34815	-4.484243640867153
103	0xc0105aff0d94c8b3	-4.088863575178197
104	0x0000000000000000	0.0
105	0xc0108f606ef7229e	-4.140016301950395
106	0xc00df547607b8da3	-3.7447650468545404
107	0x0000000000000000	0.0
108	0xc0114eb54fadea16	-4.326863522519963
109	0xc00f9a5e0be042f4	-3.9503746917547407
110	0x0000000000000000	0.0
111	0xc0123eaf0bb3b6d4	-4.561214621394999
112	0xc010c62d33275ce2	-4.193531798627392
113	0x0000000000000000	0.0
114	0xc0124b55cfb95a95	-4.5735695320969585
115	0xc010f162fda2af55	-4.23572918229532
116	0x0000000000000000	0.0
117	0xc01055b7bf1ef0a9	-4.083708750022347
118	0xc00df7b0c85d3cff	-3.745942654939085
119	0x0000000000000000	0.0
120	0xc010a42fcd428d42	-4.160338599383353
121	0xc00eb1445a481994	-3.8365561536076687
122	0x0000000000000000	0.0
123	0xc00c0b365b548d1a	-3.5054747710397693
124	0xc00977146ff895c0	-3.183144449971877
125	0x0000000000000000	0.0
126	0xc0124c2698824727	-4.574365981055769
127	0xc011049cef62687e	-4.254504909879072
128	0x0000000000000000	0.0
129	0xc010b107fd05bea9	-4.172882035709031
130	0xc00edf97d1c2c38d	-3.859176291233274
131	0x0000000000000000	0.0
132	0xc011bb3544e23bb4	-4.432820392902546
133	0xc010858f26df9718	-4.130428893467773
134	0x0000000000000000	0.0
135	0xc0109795d21d9f33	-4.148032458360649
136	0xc00ecd1ab7bdd02c	-3.8501486162949927
137	0x0000000000000000	0.0
138	0xc0118361ffcf98ef	-4.378303525014629
139	0xc01054cd9d6fe87b	-4.082815608935671
140	0x0000000000000000	0.0
141	0xc01063ef7df1dd95	-4.097593276870062
142	0xc00e7610853d2801	-3.807648697785226
143	0x0000000000000000	0.0
144	0xc00be97e03a2e46d	-3.4890098842702657
145	0xc00999aa15d135e5	-3.2000314430685983
146	0x0000000000000000	0.0
147	0xc011320f0b421961	-4.298885513219234
148	0xc0100df49414b229	-4.013628305209331
149	0x0000000000000000	0.0
150	0xc010a94f7e7cfdc2	-4.165342308405743
151	0xc00f0b366a78d488	-3.880474883854337
152	0x0000000000000000	0.0
153	0xc01039501a8ad0c8	-4.05596963379157
154	0xc00e2c431f9b9480	-3.771612402854373
155	0x0000000000000000	0.0
156	0xc0132f48e784ebb5	-4.796176545608366
157	0xc0120c6bce8acce3	-4.512130000325871
158	0x0000000000000000	0.0
159	0xc0109553f461c0c0	-4.145828073946348
160	0xc00eee22659c1f85	-3.866276544405937
161	0x0000000000000000	0.0
162	0xc010e9affa5b480e	-4.228210365125063
163	0xc00f98a3b5a3f2f9	-3.9495310011537836
164	0x0000000000000000	0.0
165	0xc01059dbaf465d92	-4.0877520930001925
166	0xc00e790818fbea6d	-3.8090974761847094
167	0x0000000000000000	0.0
168	0xc0103532aa210df0	-4.051951082484706
169	0xc00e31d232de6498	-3.774326703464407
170	0x0000000000000000	0.0
171	0xc010a26df3bec569	-4.158622559088465
172	0xc00f0f754ea601f8	-3.8825479645167853
173	0x0000000000000000	0.0
174	0xc010cf8419628bdb	-4.202652355804243
175	0xc00f6ffd7895c032	-3.929682676382094
176	0x0000000000000000	0.0
177	0xc0106a3dcfa82aec	-4.103751415862217
178	0xc00ea5895606d9fa	-3.8308283539620307
179	0x0000000000000000	0.0
180	0xc010eac0af6df289	-4.22925066097799
181	0xc00fa7f6751803f3	-3.9570130489305426
182	0x0000000000000000	0.0
183	0xc01d07038b8268ab	-7.2568494604439975
184	0xc01bf64b85f60646	-6.990522473469872
185	0x0000000000000000	0.0
186	0xc010b437285d66b8	-4.175991659832725
187	0xc00f4729d346d681	-3.9097477441781057
188	0x0000000000000000	0.0
189	0xc01195bd47eb4a1c	-4.396229861961299
190	0xc0108d5c947f82ee	-4.138048477442437
191	0x0000000000000000	0.0
192	0xc01271c40764a643	-4.6110993533307605
193	0xc01169d3440df333	-4.353344977714005
194	0x0000000000000000	0.0
195	0xc010b26491f80a27	-4.174211769832744
196	0xc00f6277a2baa424	-3.9230797494133345
197	0x0000000000000000	0.0
198	0xc00ff8ae5c9f3142	-3.9964263187486333
199	0xc00dfd34491a882b	-3.74863488304347
200	0x0000000000000000	0.0
201	0xc010b78a08183b71	-4.179237486342445
202	0xc00f7614ba0efc6d	-3.9326567207167984
203	0x0000000000000000	0.0
204	0xc01b897b502d5035	-6.884259464994149
205	0xc01a8ebc2a8a18ef	-6.639389671973034
206	0x0000000000000000	0.0
207	0xc011cab65da2afb1	-4.4479612951799234
208	0xc010d096b80664a0	-4.203699946775629
209	0x0000000000000000	0.0
210	0xc01159ec7f379e59	-4.337816226739585
211	0xc01061cbf8c8c170	-4.095504653218413
212	0x0000000000000000	0.0
213	0xc010c2bf61d869b4	-4.190183190187259
214	0xc00f9a2a41500201	-3.950275907758851
215	0x0000000000000000	0.0
216	0xc010ac4a4bf4e9e8	-4.168252169440599
217	0xc00f6e082fbf28eb	-3.928726552029834
218	0x0000000000000000	0.0
219	0xc011c49be261a689	-4.4420009014226105
220	0xc010cf9e1327f0b9	-4.202751445114864
221	0x0000000000000000	0.0
222	0xc010480bc00e9a73	-4.070357323542896
223	0xc00ea7bbeb071422	-3.831901394036792
224	0x0000000000000000	0.0
225	0xc0108db9d227cfbd	-4.138404163055324
226	0xc00f3a1aadbaf2ad	-3.903371197955798
227	0x0000000000000000	0.0
228	0xc00fd30a907b0e60	-3.9780474937013395
229	0xc00dfe80da65e3c5	-3.7492692053169514
230	0x0000000000000000	0.0
231	0xc00fe85d97c79f54	-3.9884597642702975
232	0xc00e1490cd6ecff3	-3.76004181379721
233	0x0000000000000000	0.0
234	0xc0112bb68c825a26	-4.292688556152404
235	0xc0104208031f8731	-4.064483689116785
236	0x0000000000000000	0.0
237	0xc00f7dd06e63e0e8	-3.9364327072363388
238	0xc00daace78795075	-3.7084016239187414
239	0x0000000000000000	0.0
240	0xc00fcd4a309d24ee	-3.9752391622501966
241	0xc00dfc9cddd24a2f	-3.7483460740852688
242	0x0000000000000000	0.0
243	0xc0104665e3cb2f0f	-4.068748053814274
244	0xc00ebc232e0c294c	-3.8418639752827968
245	0x0000000000000000	0.0
246	0xc00fbc6f950332d1	-3.9670097009278398
247	0xc00dedb5626cb842	-3.741068619673599
248	0x0000000000000000	0.0
249	0xc00fa0b0aa571d8c	-3.953461962493469
250	0xc00dd41b65b70e3b	-3.728567881249345
251	0x0000000000000000	0.0
252	0xc00fb1a20c3e0e05	-3.961734862941514
253	0xc00de535539e326b	-3.7369181187298657
254	0x0000000000000000	0.0
255	0xc0125a61b424766a	-4.5882633349661806
